_________________________________________________________________
Layer (type)                 Output Shape              Param #   
=================================================================
dense_1 (Dense)              (None, 8192)              33562624  
_________________________________________________________________
dense_2 (Dense)              (None, 6144)              50337792  
_________________________________________________________________
dense_3 (Dense)              (None, 3072)              18877440  
_________________________________________________________________
dense_4 (Dense)              (None, 1024)              3146752   
_________________________________________________________________
dense_5 (Dense)              (None, 62)                63550     
_________________________________________________________________
activation_1 (Activation)    (None, 62)                0         
=================================================================
Total params: 105,988,158
Trainable params: 105,988,158
Non-trainable params: 0
_________________________________________________________________
Epoch 1/10

  32/4591 [..............................] - ETA: 12:44 - loss: 16.1181 - acc: 0.0000e+00
  96/4591 [..............................] - ETA: 4:13 - loss: 15.9502 - acc: 0.0104     
…
