_________________________________________________________________
Layer (type)                 Output Shape              Param #   
=================================================================
dense_1 (Dense)              (None, 8192)              33562624  
_________________________________________________________________
batch_normalization_1 (Batch (None, 8192)              32768     
_________________________________________________________________
dense_2 (Dense)              (None, 6144)              50337792  
_________________________________________________________________
batch_normalization_2 (Batch (None, 6144)              24576     
_________________________________________________________________
dense_3 (Dense)              (None, 3072)              18877440  
_________________________________________________________________
batch_normalization_3 (Batch (None, 3072)              12288     
_________________________________________________________________
dense_4 (Dense)              (None, 1024)              3146752   
_________________________________________________________________
batch_normalization_4 (Batch (None, 1024)              4096      
_________________________________________________________________
dense_5 (Dense)              (None, 62)                63550     
_________________________________________________________________
activation_1 (Activation)    (None, 62)                0         
=================================================================
Total params: 106,061,886
Trainable params: 106,025,022
Non-trainable params: 36,864
_________________________________________________________________
Epoch 1/10

  32/4591 [..............................] - ETA: 16:06 - loss: 4.8149 - acc: 0.0312
  64/4591 [..............................] - ETA: 8:04 - loss: 6.0936 - acc: 0.0469 
…
